im_g1_fit_out/im_g1_fit_impact_parameter.npy (npy, 80128 bytes, 1 tensors)

array f8 [5000, 2]
0	0x3ec0b30671b2f709	1.990713725057574e-06
1	0x3ff4725c74b04dc3	1.2779202039863413
2	0xbea54f04b811ce57	-6.350477265285455e-07
3	0x3ff472d09f0fb9bc	1.2780309880578065
4	0xbeb2ef25392a1b76	-1.1285639841833071e-06
5	0x3ff47170a75e6fe1	1.277695325646157
6	0x3ed399f3111a5ae6	4.6733296287435095e-06
7	0x3ff4732caf2a4d9d	1.2781187860863163
8	0xbed3fd46384c499c	-4.765833072866573e-06
9	0x3ff472292de680b5	1.2778713028892927
10	0x3eccd63aafc5f6c5	3.4376183732355276e-06
11	0x3ff471a7ea90ff81	1.2777480280637692
12	0x3ec016da983eade3	1.9179908025879e-06
13	0x3ff473ac2cd406e0	1.2782403708555918
14	0xbed6c2039a7a8b19	-5.425898428920348e-06
15	0x3ff470f07bb5ca9f	1.2775730926920585
16	0x3edfcabe899beaa1	7.579796283736313e-06
17	0x3ff472e78b8829d1	1.2780528498138788
18	0xbed2c6551afc4099	-4.476245905285633e-06
19	0x3ff47301a194c29e	1.2780777274858006
20	0x3e8b7fa54e9cb668	2.0488065582398387e-07
21	0x3ff470ab347a482a	1.2775070238026367
22	0x3edb5772facdc528	6.518744993453959e-06
23	0x3ff4740a5b703903	1.2783301898776365
24	0xbee249b230de315c	-8.720338452915845e-06
25	0x3ff4715f057b9132	1.277678510109649
26	0x3edf64fc2c895310	7.485025613170019e-06
27	0x3ff471fdbed5635b	1.2778298811374131
28	0xbea25f6bcf889496	-5.47550285172202e-07
29	0x3ff473faa3c65d85	1.2783152005630154
30	0xbed6c4714eac8d5c	-5.428160174489448e-06
31	0x3ff47005299354b6	1.277348673252431
32	0x3ee55a73062716d6	1.0182055295692072e-05
33	0x3ff473b797491096	1.27825125785697
34	0xbee20f645048eb9e	-8.611738402488676e-06
35	0x3ff4727f06a78de4	1.2779531726781608
36	0x3ed0a78ad94f121e	3.970733264805946e-06
37	0x3ff470af1eb92853	1.2775107574584765
38	0x3ed6b6565adf4b4c	5.4150236063640405e-06
39	0x3ff4749b643e1e56	1.278468505452016
40	0xbee63f896d034235	-1.0608764029391551e-05
41	0x3ff4705626f73fd6	1.277425911150194
42	0x3ee7247e27dad7a3	1.1035227767446624e-05
43	0x3ff472c0a30c3e3d	1.2780157441192295
44	0xbed38017cd6c50b5	-4.649248885230953e-06
45	0x3ff473c191a6a605	1.2782607736102147
46	0xbec58d782714d99a	-2.569271878495594e-06
47	0x3ff46f877c460175	1.2772288183624287
48	0x3ee6d2f637bee101	1.0883364431766176e-05
49	0x3ff4748742b9204a	1.2784493070958143
50	0xbee9a7d76f2f8340	-1.223355818597146e-05
51	0x3ff47197932cdd16	1.2777324437173028
52	0x3ee19da071ea5890	8.399834368771447e-06
53	0x3ff47149728476aa	1.2776579354607898
54	0x3ec1d4c9dcadc0e5	2.1256453001592816e-06
55	0x3ff474c13b57cc73	1.2785045927128322
56	0xbee50cdfeebb70f4	-1.003756138778136e-05
57	0x3ff46f4d32a1a7af	1.2771732309142683
58	0x3eec4bf7852c299f	1.3492939762400911e-05
59	0x3ff473af986afb0c	1.2782436326812698
60	0xbee39824edf2e7e0	-9.343296765929683e-06
61	0x3ff4732365cd2ca1	1.2781099297160738
62	0x3ec272ecba9817ad	2.1992832059972845e-06
63	0x3ff46fb36b5130bf	1.2772707168651747
64	0x3ee3f83cbe265572	9.522283964706199e-06
65	0x3ff47523bdfe3d5c	1.278598539505615
66	0xbeee6b01d9eed2f7	-1.4504431247044822e-05
67	0x3ff47066fdd6326c	1.277441970395695
68	0x3eea056cfdf74536	1.2407872360594747e-05
69	0x3ff4723d2ebc4bb4	1.2778903794867178
70	0xbec6809353fc4b7e	-2.68247700308796e-06
71	0x3ff4747be3626e06	1.2784384615141575
72	0xbedc49b07d71557a	-6.744348829708862e-06
73	0x3ff46ea426ae7fbb	1.2770120154382159
74	0x3eee65074b5f3f4e	1.4493294980072156e-05
75	0x3ff4749bcbbe8dff	1.278468891025909
76	0xbeecc321daaa3f77	-1.3714902555222775e-05
77	0x3ff4722f8835b0c7	1.2778773613636518
78	0x3edfad1a04943712	7.55218941007691e-06
79	0x3ff47071bb7e5336	1.277452213665311
80	0x3ed923a16cfcb43d	5.993648031038748e-06
81	0x3ff4755bcdd9b1da	1.2786520043401794
82	0xbeee96636fa768b1	-1.4585235011678072e-05
83	0x3ff46f17c3325e34	1.2771222710488361
84	0x3ef021028f6d76d1	1.5381760899094516e-05
85	0x3ff47345bca05dd4	1.278142678091048
86	0xbee1175db2dcf8a5	-8.149754275540574e-06
87	0x3ff473d92d8d63f1	1.2782832888972246
88	0xbeb3ebe02cf31805	-1.1874073384972848e-06
89	0x3ff46eaed24a5d15	1.2770221914741502
90	0x3eec98017d52b47d	1.3634573330224002e-05
91	0x3ff47562088f19e7	1.2786579450927265
92	0xbef1d3ef0ab36c55	-1.700197814789543e-05
93	0x3ff470e9fa713d1c	1.2775668890861374
94	0x3ee9ecb01a9acc72	1.2361794534987271e-05
95	0x3ff4718a1122d1bc	1.2777195615172863
96	0x3ea72900c893b91d	6.902267994082993e-07
97	0x3ff475241837d0e9	1.2785988756195883
98	0xbee8a3f3a02bc270	-1.1749475566231684e-05
99	0x3ff46e0aaa162ab4	1.2768656391150843
100	0x3ef1ef5ccfc390a4	1.7104158346451515e-05
101	0x3ff4745bccc68781	1.2784078597109956
102	0xbeec2079d6dba959	-1.3411931571967352e-05
103	0x3ff472ebf29331a4	1.278057048376561
104	0x3ed5f276cd273648	5.232602421090917e-06
105	0x3ff46f6f6bcb78f0	1.2772058687910963
106	0x3ee602966c7d97e3	1.0495237247897616e-05
107	0x3ff475cd68bb92fa	1.2787603465196171
108	0xbef341bc2a1d3f4a	-1.8364694035099488e-05
109	0x3ff46f66748705f4	1.277197318253795
110	0x3ef0dd3a9b3b8142	1.6082931053485997e-05
111	0x3ff472af20989984	1.2779990456852781
112	0xbed70b4274e4b31f	-5.494113635412506e-06
113	0x3ff4748b5ad63009	1.2784532116229477
114	0xbed8ec26536bb9e5	-5.941977454722366e-06
115	0x3ff46dbb2e11e469	1.2767898368458879
116	0x3ef2033a4718a2d5	1.7178161618644175e-05
117	0x3ff47552cadfffaa	1.2786434101871955
118	0xbef2c21daf910cfe	-1.788927599856177e-05
119	0x3ff471aebb2c0188	1.2777545272257118
120	0x3ee7518c57af02b0	1.1119150021944357e-05
121	0x3ff470a8cdb396a3	1.277504733583023
122	0x3ed582e4d376d865	5.1286945600884255e-06
123	0x3ff475ba8c689829	1.2787423596105418
124	0xbef1a74c46b9048c	-1.683569682442826e-05
125	0x3ff46defe48ad550	1.2768401076730989
126	0x3ef385ff0d954401	1.8618987131905493e-05
127	0x3ff473dddb0f5cdb	1.278287749961058
128	0xbee87bb1475ac38f	-1.1674487022746305e-05
129	0x3ff473ab12f8816d	1.2782393208545628
130	0x3eb98c03d1cae7dc	1.5227158833134538e-06
131	0x3ff46e59e3a80157	1.2769411938498558
132	0x3eef846019995577	1.5028520283492535e-05
133	0x3ff476044217b7ad	1.2788126546615601
134	0xbef5c2af1fb05e7b	-2.075241534890561e-05
135	0x3ff4701c726d4e4b	1.2773708791545626
136	0x3ef08015f5858506	1.5735945767207853e-05
137	0x3ff471f54e7ded87	1.277821833237654
138	0xbebb8b8a92d84b7a	-1.6418149003701703e-06
139	0x3ff47530a76be128	1.278610853185521
140	0xbee8894c4cefd7f8	-1.1699829341776228e-05
141	0x3ff46d02791a5ebc	1.2766136866174937
142	0x3ef4b33ad1c4ade6	1.9741169226579045e-05
143	0x3ff474fb1c2a79e9	1.2785597896796566
144	0xbef20af9445e8dea	-1.720701791153675e-05
145	0x3ff47289a4ddbd30	1.277963298805684
146	0x3ee241b959aca56c	8.705489383214602e-06
147	0x3ff46fa16ad6e06c	1.2772535489475798
148	0x3ee56044984a158a	1.0192893350034386e-05
149	0x3ff4763030f39093	1.2788545524754553
150	0xbef61c269a40d86c	-2.1085704830358187e-05
151	0x3ff46e4c1b2edb4d	1.2769280492627388
152	0x3ef40a17c63f7a5e	1.9111085194251753e-05
153	0x3ff4733d2db783e4	1.2781345163168618
154	0xbee22495f7127339	-8.651215212923678e-06
155	0x3ff4745ecd907337	1.2784107236722784
156	0xbece937124820629	-3.6449367009645534e-06
157	0x3ff46d3d9cc45297	1.2766700862604574
158	0x3ef3dcd6ee55d374	1.8942503535030128e-05
159	0x3ff475efd90d283b	1.2787931898660776
160	0xbef6983a891c4c0c	-2.154793089121855e-05
161	0x3ff4710f143d9d66	1.277602271142166
162	0x3eee4bf229470eea	1.4446575087207842e-05
163	0x3ff4711d2c10c0b3	1.2776157113367332
164	0x3ecb17736f5ab42e	3.229571002480553e-06
165	0x3ff475cb8a16a8df	1.278758563431033
166	0xbef28faffccf65b5	-1.770141516375052e-05
167	0x3ff46cc36b3a8730	1.2765535534494568
168	0x3ef633891d63f46a	2.1172820049198902e-05
169	0x3ff4746fd4c05885	1.2784269629096638
170	0xbeefcf5a9299c621	-1.5168178453014873e-05
171	0x3ff4735a9eb3c1f7	1.2781625937751622
172	0x3ed4d4999c6ed27b	4.966370801652419e-06
173	0x3ff46e6eb261454f	1.2769610374419533
174	0x3ef02aeb0ea7f843	1.5418671788218712e-05
175	0x3ff4767cca5167ac	1.2789276030584729
176	0xbef90422acad96d9	-2.3857263652080462e-05
177	0x3ff46f347882b9ea	1.277149649376606
178	0x3ef391170047ccc0	1.866031381498874e-05
179	0x3ff472839aa91ac0	1.2779575387409494
180	0xbed2f5d7c2bd7323	-4.520493387474831e-06
181	0x3ff475095e260bcc	1.278573386924779
182	0xbee52649d56d781b	-1.0084898048819864e-05
183	0x3ff46c4b2fbbf80c	1.2764388908976825
184	0x3ef6ca1b4d8c54bd	2.1733740911040968e-05
185	0x3ff47590f7e4bc02	1.27870270570179
186	0xbef5d1e500136b2e	-2.0809078709808897e-05
187	0x3ff47209ce0540da	1.277841381805095
188	0x3ee96bb11f2c0d8d	1.2121520716507398e-05
189	0x3ff470174bf4b2df	1.2773659674668847
190	0x3ee295a67b65c658	8.861814291025147e-06
191	0x3ff4765960ced460	1.2788938314017955
192	0xbef7e373171fcb5f	-2.278182495980428e-05
193	0x3ff46d34fbddc3c2	1.2766618574644188
194	0x3ef69b57cbecf210	2.1559532565650476e-05
195	0x3ff473c21fd4f7df	1.278261303275478
196	0xbee915eb4e59ca41	-1.1961756580113342e-05
197	0x3ff47416124184b1	1.2783413613436034
198	0xbe9234c75595a2fb	-2.712930232324934e-07
199	0x3ff46d265a463b8b	1.276647904047169
200	0x3ef4f53d98708e22	1.9987078783269042e-05
201	0x3ff4767fa9ffdb71	1.2789303436854562
202	0xbefa16bc7bba7920	-2.488023140633747e-05
203	0x3ff4704c650156aa	1.2774166055218452
204	0x3ef23a1e6e5b6f32	1.7382647363158722e-05
205	0x3ff471aba8177fe8	1.2777515951238403
206	0x3ea2f94e0e8f5543	5.654647142703601e-07
207	0x3ff475a17cb3b83a	1.2787184592412033
208	0xbef1fe2201f95849	-1.715918199204244e-05
209	0x3ff46bc36923ffd4	1.2763094050460397
210	0x3ef8644f20ea79ef	2.3261864095952834e-05
211	0x3ff474fd32b9409c	1.2785617810623426
212	0xbef3941ab5d1e647	-1.867154366095292e-05
213	0x3ff472f10fcd7772	1.2780619256295407
214	0x3ee232a3aea71767	8.677392050137224e-06
215	0x3ff46ee4e1a7d28d	1.277073747126596
216	0x3eef163186c1ca18	1.4823290449527063e-05
217	0x3ff476bef1b9cfb6	1.2789906923689904
218	0xbefba0f2c7f4fb56	-2.6348785920445157e-05
219	0x3ff46e1ef5426e68	1.2768849926423176
220	0x3ef62435afec0519	2.111572666319448e-05
221	0x3ff47307a3ea179c	1.2780834582240237
222	0xbee03fedc1d0e928	-7.748471086189786e-06
223	0x3ff474b894083832	1.2784963400367926
224	0xbeddd62a5a9c3d2c	-7.113595907672851e-06
225	0x3ff46be8679f1f26	1.276344685336832
226	0x3ef861d5608b2bc1	2.325264179851481e-05
227	0x3ff476334c99e252	1.2788575165015073
228	0xbef95905746a4d84	-2.4173488123736052e-05
229	0x3ff47170cca76083	1.2776954645433143
230	0x3ef00b8441da0b43	1.5301691851830943e-05
231	0x3ff470b58646b333	1.2775168652689899
232	0x3edb9d9e1d0d6c52	6.584094493468258e-06
233	0x3ff476395912b800	1.2788632850092654
234	0xbef8b9d49f591b62	-2.3580456362883187e-05
235	0x3ff46bf0a5c4b46e	1.2763525462462684
236	0x3ef8dc5f75c6e1af	2.3709136586198904e-05
237	0x3ff47448484bb8ba	1.2783892463735769
238	0xbef018dbd23d9392	-1.5351394849888777e-05
239	0x3ff473b54b028946	1.2782490663599488
240	0x3ecf4513bf5cc20f	3.7276545254082983e-06
241	0x3ff46d7a0a971170	1.276727715842835
242	0x3ef547b5609b45ed	2.0294295643824156e-05
243	0x3ff476dcf669fb92	1.279019320063274
244	0xbefd2a2a18724b07	-2.7813629938376455e-05
245	0x3ff46f604b484369	1.277191442557717
246	0x3ef4f2dce2af4909	1.997822088723684e-05
247	0x3ff4724314266175	1.2778960024935178
248	0xbec55aaf577d5927	-2.5456235412210163e-06
249	0x3ff4755abeeb209d	1.2786509950401872
250	0xbeefafbb1ae5707c	-1.510927617392348e-05
251	0x3ff46b0fca1526c8	1.276138104806181
252	0x3efa44802a20db1b	2.5050717006726204e-05
253	0x3ff47591a224318f	1.2787033399245933
254	0xbef720365f751f80	-2.2054509796448196e-05
255	0x3ff4727987afa8fa	1.2779479313126658
